…
            (v_proj): NoisyW8A8Linear(5120, 5120, bias=True, weight_quant=per_tensor, act_quant=per_tensor, output_quant=per_tensor, err_prob=0.0)
            (q_proj): NoisyW8A8Linear(5120, 5120, bias=True, weight_quant=per_tensor, act_quant=per_tensor, output_quant=per_tensor, err_prob=0.0)
            (out_proj): NoisyW8A8Linear(5120, 5120, bias=True, weight_quant=per_tensor, act_quant=per_tensor, output_quant=None, err_prob=0.0)
            (bmm1): NoisyW8A8BMM(act_quant=per_tensor, output_quant=per_tensor, err_prob=0.0)
            (bmm2): NoisyW8A8BMM(act_quant=per_tensor, output_quant=per_tensor, err_prob=0.0)
          )
          (activation_fn): ReLU()
          (self_attn_layer_norm): LayerNorm((5120,), eps=1e-05, elementwise_affine=True)
          (fc1): NoisyW8A8Linear(5120, 20480, bias=True, weight_quant=per_tensor, act_quant=per_tensor, output_quant=per_tensor, err_prob=0.0)
          (fc2): NoisyW8A8Linear(20480, 5120, bias=True, weight_quant=per_tensor, act_quant=per_tensor, output_quant=per_tensor, err_prob=0.0)
          (final_layer_norm): LayerNorm((5120,), eps=1e-05, elementwise_affine=True)
        )
        (1): OPTDecoderLayer(
          (self_attn): OPTAttention(
            (k_proj): Linear(in_features=5120, out_features=5120, bias=True)
            (v_proj): Linear(in_features=5120, out_features=5120, bias=True)
            (q_proj): Linear(in_features=5120, out_features=5120, bias=True)
            (out_proj): Linear(in_features=5120, out_features=5120, bias=True)
            (bmm1): TorchBMM()
            (bmm2): TorchBMM()
          )
          (activation_fn): ReLU()
          (self_attn_layer_norm): LayerNorm((5120,), eps=1e-05, elementwise_affine=True)
          (fc1): Linear(in_features=5120, out_features=20480, bias=True)
          (fc2): Linear(in_features=20480, out_features=5120, bias=True)
          (final_layer_norm): LayerNorm((5120,), eps=1e-05, elementwise_affine=True)
        )
        (2): OPTDecoderLayer(
          (self_attn): OPTAttention(
            (k_proj): Linear(in_features=5120, out_features=5120, bias=True)
            (v_proj): Linear(in_features=5120, out_features=5120, bias=True)
            (q_proj): Linear(in_features=5120, out_features=5120, bias=True)
            (out_proj): Linear(in_features=5120, out_features=5120, bias=True)
            (bmm1): TorchBMM()
            (bmm2): TorchBMM()
          )
          (activation_fn): ReLU()
          (self_attn_layer_norm): LayerNorm((5120,), eps=1e-05, elementwise_affine=True)
          (fc1): Linear(in_features=5120, out_features=20480, bias=True)
          (fc2): Linear(in_features=20480, out_features=5120, bias=True)
          (final_layer_norm): LayerNorm((5120,), eps=1e-05, elementwise_affine=True)
        )
        (3): OPTDecoderLayer(
          (self_attn): OPTAttention(
            (k_proj): Linear(in_features=5120, out_features=5120, bias=True)
            (v_proj): Linear(in_features=5120, out_features=5120, bias=True)
            (q_proj): Linear(in_features=5120, out_features=5120, bias=True)
            (out_proj): Linear(in_features=5120, out_features=5120, bias=True)
            (bmm1): TorchBMM()
            (bmm2): TorchBMM()
          )
          (activation_fn): ReLU()
          (self_attn_layer_norm): LayerNorm((5120,), eps=1e-05, elementwise_affine=True)
          (fc1): Linear(in_features=5120, out_features=20480, bias=True)
          (fc2): Linear(in_features=20480, out_features=5120, bias=True)
          (final_layer_norm): LayerNorm((5120,), eps=1e-05, elementwise_affine=True)
        )
        (4): OPTDecoderLayer(
          (self_attn): OPTAttention(
            (k_proj): Linear(in_features=5120, out_features=5120, bias=True)
            (v_proj): Linear(in_features=5120, out_features=5120, bias=True)
            (q_proj): Linear(in_features=5120, out_features=5120, bias=True)
            (out_proj): Linear(in_features=5120, out_features=5120, bias=True)
            (bmm1): TorchBMM()
            (bmm2): TorchBMM()
          )
          (activation_fn): ReLU()
          (self_attn_layer_norm): LayerNorm((5120,), eps=1e-05, elementwise_affine=True)
          (fc1): Linear(in_features=5120, out_features=20480, bias=True)
          (fc2): Linear(in_features=20480, out_features=5120, bias=True)
          (final_layer_norm): LayerNorm((5120,), eps=1e-05, elementwise_affine=True)
        )
        (5): OPTDecoderLayer(
          (self_attn): OPTAttention(
            (k_proj): Linear(in_features=5120, out_features=5120, bias=True)
            (v_proj): Linear(in_features=5120, out_features=5120, bias=True)
            (q_proj): Linear(in_features=5120, out_features=5120, bias=True)
            (out_proj): Linear(in_features=5120, out_features=5120, bias=True)
            (bmm1): TorchBMM()
            (bmm2): TorchBMM()
          )
          (activation_fn): ReLU()
          (self_attn_layer_norm): LayerNorm((5120,), eps=1e-05, elementwise_affine=True)
          (fc1): Linear(in_features=5120, out_features=20480, bias=True)
          (fc2): Linear(in_features=20480, out_features=5120, bias=True)
          (final_layer_norm): LayerNorm((5120,), eps=1e-05, elementwise_affine=True)
        )
        (6): OPTDecoderLayer(
          (self_attn): OPTAttention(
            (k_proj): Linear(in_features=5120, out_features=5120, bias=True)
            (v_proj): Linear(in_features=5120, out_features=5120, bias=True)
            (q_proj): Linear(in_features=5120, out_features=5120, bias=True)
            (out_proj): Linear(in_features=5120, out_features=5120, bias=True)
            (bmm1): TorchBMM()
            (bmm2): TorchBMM()
          )
          (activation_fn): ReLU()
          (self_attn_layer_norm): LayerNorm((5120,), eps=1e-05, elementwise_affine=True)
          (fc1): Linear(in_features=5120, out_features=20480, bias=True)
          (fc2): Linear(in_features=20480, out_features=5120, bias=True)
          (final_layer_norm): LayerNorm((5120,), eps=1e-05, elementwise_affine=True)
        )
        (7): OPTDecoderLayer(
          (self_attn): OPTAttention(
            (k_proj): Linear(in_features=5120, out_features=5120, bias=True)
            (v_proj): Linear(in_features=5120, out_features=5120, bias=True)
            (q_proj): Linear(in_features=5120, out_features=5120, bias=True)
            (out_proj): Linear(in_features=5120, out_features=5120, bias=True)
            (bmm1): TorchBMM()
            (bmm2): TorchBMM()
          )
          (activation_fn): ReLU()
          (self_attn_layer_norm): LayerNorm((5120,), eps=1e-05, elementwise_affine=True)
          (fc1): Linear(in_features=5120, out_features=20480, bias=True)
          (fc2): Linear(in_features=20480, out_features=5120, bias=True)
          (final_layer_norm): LayerNorm((5120,), eps=1e-05, elementwise_affine=True)
        )
        (8): OPTDecoderLayer(
          (self_attn): OPTAttention(
            (k_proj): Linear(in_features=5120, out_features=5120, bias=True)
            (v_proj): Linear(in_features=5120, out_features=5120, bias=True)
            (q_proj): Linear(in_features=5120, out_features=5120, bias=True)
            (out_proj): Linear(in_features=5120, out_features=5120, bias=True)
            (bmm1): TorchBMM()
            (bmm2): TorchBMM()
          )
          (activation_fn): ReLU()
          (self_attn_layer_norm): LayerNorm((5120,), eps=1e-05, elementwise_affine=True)
          (fc1): Linear(in_features=5120, out_features=20480, bias=True)
          (fc2): Linear(in_features=20480, out_features=5120, bias=True)
          (final_layer_norm): LayerNorm((5120,), eps=1e-05, elementwise_affine=True)
        )
        (9): OPTDecoderLayer(
          (self_attn): OPTAttention(
            (k_proj): Linear(in_features=5120, out_features=5120, bias=True)
            (v_proj): Linear(in_features=5120, out_features=5120, bias=True)
            (q_proj): Linear(in_features=5120, out_features=5120, bias=True)
            (out_proj): Linear(in_features=5120, out_features=5120, bias=True)
            (bmm1): TorchBMM()
            (bmm2): TorchBMM()
          )
          (activation_fn): ReLU()
          (self_attn_layer_norm): LayerNorm((5120,), eps=1e-05, elementwise_affine=True)
          (fc1): Linear(in_features=5120, out_features=20480, bias=True)
          (fc2): Linear(in_features=20480, out_features=5120, bias=True)
          (final_layer_norm): LayerNorm((5120,), eps=1e-05, elementwise_affine=True)
        )
        (10): OPTDecoderLayer(
          (self_attn): OPTAttention(
            (k_proj): Linear(in_features=5120, out_features=5120, bias=True)
            (v_proj): Linear(in_features=5120, out_features=5120, bias=True)
            (q_proj): Linear(in_features=5120, out_features=5120, bias=True)
            (out_proj): Linear(in_features=5120, out_features=5120, bias=True)
            (bmm1): TorchBMM()
            (bmm2): TorchBMM()
          )
          (activation_fn): ReLU()
          (self_attn_layer_norm): LayerNorm((5120,), eps=1e-05, elementwise_affine=True)
          (fc1): Linear(in_features=5120, out_features=20480, bias=True)
          (fc2): Linear(in_features=20480, out_features=5120, bias=True)
          (final_layer_norm): LayerNorm((5120,), eps=1e-05, elementwise_affine=True)
        )
        (11): OPTDecoderLayer(
          (self_attn): OPTAttention(
            (k_proj): Linear(in_features=5120, out_features=5120, bias=True)
            (v_proj): Linear(in_features=5120, out_features=5120, bias=True)
            (q_proj): Linear(in_features=5120, out_features=5120, bias=True)
            (out_proj): Linear(in_features=5120, out_features=5120, bias=True)
            (bmm1): TorchBMM()
            (bmm2): TorchBMM()
          )
          (activation_fn): ReLU()
          (self_attn_layer_norm): LayerNorm((5120,), eps=1e-05, elementwise_affine=True)
          (fc1): Linear(in_features=5120, out_features=20480, bias=True)
          (fc2): Linear(in_features=20480, out_features=5120, bias=True)
          (final_layer_norm): LayerNorm((5120,), eps=1e-05, elementwise_affine=True)
        )
        (12): OPTDecoderLayer(
          (self_attn): OPTAttention(
            (k_proj): Linear(in_features=5120, out_features=5120, bias=True)
            (v_proj): Linear(in_features=5120, out_features=5120, bias=True)
            (q_proj): Linear(in_features=5120, out_features=5120, bias=True)
            (out_proj): Linear(in_features=5120, out_features=5120, bias=True)
            (bmm1): TorchBMM()
            (bmm2): TorchBMM()
          )
          (activation_fn): ReLU()
          (self_attn_layer_norm): LayerNorm((5120,), eps=1e-05, elementwise_affine=True)
          (fc1): Linear(in_features=5120, out_features=20480, bias=True)
          (fc2): Linear(in_features=20480, out_features=5120, bias=True)
          (final_layer_norm): LayerNorm((5120,), eps=1e-05, elementwise_affine=True)
        )
        (13): OPTDecoderLayer(
          (self_attn): OPTAttention(
            (k_proj): Linear(in_features=5120, out_features=5120, bias=True)
            (v_proj): Linear(in_features=5120, out_features=5120, bias=True)
            (q_proj): Linear(in_features=5120, out_features=5120, bias=True)
            (out_proj): Linear(in_features=5120, out_features=5120, bias=True)
            (bmm1): TorchBMM()
            (bmm2): TorchBMM()
          )
          (activation_fn): ReLU()
          (self_attn_layer_norm): LayerNorm((5120,), eps=1e-05, elementwise_affine=True)
          (fc1): Linear(in_features=5120, out_features=20480, bias=True)
          (fc2): Linear(in_features=20480, out_features=5120, bias=True)
          (final_layer_norm): LayerNorm((5120,), eps=1e-05, elementwise_affine=True)
        )
        (14): OPTDecoderLayer(
          (self_attn): OPTAttention(
            (k_proj): Linear(in_features=5120, out_features=5120, bias=True)
            (v_proj): Linear(in_features=5120, out_features=5120, bias=True)
            (q_proj): Linear(in_features=5120, out_features=5120, bias=True)
            (out_proj): Linear(in_features=5120, out_features=5120, bias=True)
            (bmm1): TorchBMM()
            (bmm2): TorchBMM()
          )
          (activation_fn): ReLU()
          (self_attn_layer_norm): LayerNorm((5120,), eps=1e-05, elementwise_affine=True)
          (fc1): Linear(in_features=5120, out_features=20480, bias=True)
          (fc2): Linear(in_features=20480, out_features=5120, bias=True)
          (final_layer_norm): LayerNorm((5120,), eps=1e-05, elementwise_affine=True)
        )
        (15): OPTDecoderLayer(
          (self_attn): OPTAttention(
            (k_proj): Linear(in_features=5120, out_features=5120, bias=True)
            (v_proj): Linear(in_features=5120, out_features=5120, bias=True)
            (q_proj): Linear(in_features=5120, out_features=5120, bias=True)
            (out_proj): Linear(in_features=5120, out_features=5120, bias=True)
            (bmm1): TorchBMM()
            (bmm2): TorchBMM()
          )
          (activation_fn): ReLU()
          (self_attn_layer_norm): LayerNorm((5120,), eps=1e-05, elementwise_affine=True)
          (fc1): Linear(in_features=5120, out_features=20480, bias=True)
          (fc2): Linear(in_features=20480, out_features=5120, bias=True)
          (final_layer_norm): LayerNorm((5120,), eps=1e-05, elementwise_affine=True)
        )
        (16): OPTDecoderLayer(
          (self_attn): OPTAttention(
            (k_proj): Linear(in_features=5120, out_features=5120, bias=True)
            (v_proj): Linear(in_features=5120, out_features=5120, bias=True)
            (q_proj): Linear(in_features=5120, out_features=5120, bias=True)
            (out_proj): Linear(in_features=5120, out_features=5120, bias=True)
            (bmm1): TorchBMM()
            (bmm2): TorchBMM()
          )
          (activation_fn): ReLU()
          (self_attn_layer_norm): LayerNorm((5120,), eps=1e-05, elementwise_affine=True)
          (fc1): Linear(in_features=5120, out_features=20480, bias=True)
          (fc2): Linear(in_features=20480, out_features=5120, bias=True)
          (final_layer_norm): LayerNorm((5120,), eps=1e-05, elementwise_affine=True)
        )
        (17): OPTDecoderLayer(
          (self_attn): OPTAttention(
            (k_proj): Linear(in_features=5120, out_features=5120, bias=True)
            (v_proj): Linear(in_features=5120, out_features=5120, bias=True)
            (q_proj): Linear(in_features=5120, out_features=5120, bias=True)
            (out_proj): Linear(in_features=5120, out_features=5120, bias=True)
            (bmm1): TorchBMM()
            (bmm2): TorchBMM()
          )
          (activation_fn): ReLU()
          (self_attn_layer_norm): LayerNorm((5120,), eps=1e-05, elementwise_affine=True)
          (fc1): Linear(in_features=5120, out_features=20480, bias=True)
          (fc2): Linear(in_features=20480, out_features=5120, bias=True)
          (final_layer_norm): LayerNorm((5120,), eps=1e-05, elementwise_affine=True)
        )
        (18): OPTDecoderLayer(
          (self_attn): OPTAttention(
            (k_proj): Linear(in_features=5120, out_features=5120, bias=True)
            (v_proj): Linear(in_features=5120, out_features=5120, bias=True)
            (q_proj): Linear(in_features=5120, out_features=5120, bias=True)
            (out_proj): Linear(in_features=5120, out_features=5120, bias=True)
            (bmm1): TorchBMM()
            (bmm2): TorchBMM()
          )
          (activation_fn): ReLU()
          (self_attn_layer_norm): LayerNorm((5120,), eps=1e-05, elementwise_affine=True)
          (fc1): Linear(in_features=5120, out_features=20480, bias=True)
          (fc2): Linear(in_features=20480, out_features=5120, bias=True)
          (final_layer_norm): LayerNorm((5120,), eps=1e-05, elementwise_affine=True)
        )
        (19): OPTDecoderLayer(
          (self_attn): OPTAttention(
            (k_proj): Linear(in_features=5120, out_features=5120, bias=True)
            (v_proj): Linear(in_features=5120, out_features=5120, bias=True)
            (q_proj): Linear(in_features=5120, out_features=5120, bias=True)
            (out_proj): Linear(in_features=5120, out_features=5120, bias=True)
            (bmm1): TorchBMM()
            (bmm2): TorchBMM()
          )
          (activation_fn): ReLU()
          (self_attn_layer_norm): LayerNorm((5120,), eps=1e-05, elementwise_affine=True)
          (fc1): Linear(in_features=5120, out_features=20480, bias=True)
          (fc2): Linear(in_features=20480, out_features=5120, bias=True)
          (final_layer_norm): LayerNorm((5120,), eps=1e-05, elementwise_affine=True)
        )
        (20): OPTDecoderLayer(
          (self_attn): OPTAttention(
            (k_proj): Linear(in_features=5120, out_features=5120, bias=True)
            (v_proj): Linear(in_features=5120, out_features=5120, bias=True)
            (q_proj): Linear(in_features=5120, out_features=5120, bias=True)
            (out_proj): Linear(in_features=5120, out_features=5120, bias=True)
            (bmm1): TorchBMM()
            (bmm2): TorchBMM()
          )
          (activation_fn): ReLU()
          (self_attn_layer_norm): LayerNorm((5120,), eps=1e-05, elementwise_affine=True)
          (fc1): Linear(in_features=5120, out_features=20480, bias=True)
          (fc2): Linear(in_features=20480, out_features=5120, bias=True)
          (final_layer_norm): LayerNorm((5120,), eps=1e-05, elementwise_affine=True)
        )
        (21): OPTDecoderLayer(
          (self_attn): OPTAttention(
            (k_proj): Linear(in_features=5120, out_features=5120, bias=True)
            (v_proj): Linear(in_features=5120, out_features=5120, bias=True)
            (q_proj): Linear(in_features=5120, out_features=5120, bias=True)
            (out_proj): Linear(in_features=5120, out_features=5120, bias=True)
            (bmm1): TorchBMM()
            (bmm2): TorchBMM()
          )
          (activation_fn): ReLU()
          (self_attn_layer_norm): LayerNorm((5120,), eps=1e-05, elementwise_affine=True)
          (fc1): Linear(in_features=5120, out_features=20480, bias=True)
          (fc2): Linear(in_features=20480, out_features=5120, bias=True)
          (final_layer_norm): LayerNorm((5120,), eps=1e-05, elementwise_affine=True)
        )
        (22): OPTDecoderLayer(
          (self_attn): OPTAttention(
            (k_proj): Linear(in_features=5120, out_features=5120, bias=True)
            (v_proj): Linear(in_features=5120, out_features=5120, bias=True)
            (q_proj): Linear(in_features=5120, out_features=5120, bias=True)
            (out_proj): Linear(in_features=5120, out_features=5120, bias=True)
            (bmm1): TorchBMM()
            (bmm2): TorchBMM()
          )
          (activation_fn): ReLU()
          (self_attn_layer_norm): LayerNorm((5120,), eps=1e-05, elementwise_affine=True)
          (fc1): Linear(in_features=5120, out_features=20480, bias=True)
          (fc2): Linear(in_features=20480, out_features=5120, bias=True)
          (final_layer_norm): LayerNorm((5120,), eps=1e-05, elementwise_affine=True)
        )
        (23): OPTDecoderLayer(
          (self_attn): OPTAttention(
            (k_proj): Linear(in_features=5120, out_features=5120, bias=True)
            (v_proj): Linear(in_features=5120, out_features=5120, bias=True)
            (q_proj): Linear(in_features=5120, out_features=5120, bias=True)
            (out_proj): Linear(in_features=5120, out_features=5120, bias=True)
            (bmm1): TorchBMM()
            (bmm2): TorchBMM()
          )
          (activation_fn): ReLU()
          (self_attn_layer_norm): LayerNorm((5120,), eps=1e-05, elementwise_affine=True)
          (fc1): Linear(in_features=5120, out_features=20480, bias=True)
          (fc2): Linear(in_features=20480, out_features=5120, bias=True)
          (final_layer_norm): LayerNorm((5120,), eps=1e-05, elementwise_affine=True)
        )
        (24): OPTDecoderLayer(
          (self_attn): OPTAttention(
            (k_proj): Linear(in_features=5120, out_features=5120, bias=True)
            (v_proj): Linear(in_features=5120, out_features=5120, bias=True)
            (q_proj): Linear(in_features=5120, out_features=5120, bias=True)
            (out_proj): Linear(in_features=5120, out_features=5120, bias=True)
            (bmm1): TorchBMM()
            (bmm2): TorchBMM()
          )
          (activation_fn): ReLU()
          (self_attn_layer_norm): LayerNorm((5120,), eps=1e-05, elementwise_affine=True)
          (fc1): Linear(in_features=5120, out_features=20480, bias=True)
          (fc2): Linear(in_features=20480, out_features=5120, bias=True)
          (final_layer_norm): LayerNorm((5120,), eps=1e-05, elementwise_affine=True)
        )
        (25): OPTDecoderLayer(
          (self_attn): OPTAttention(
            (k_proj): Linear(in_features=5120, out_features=5120, bias=True)
            (v_proj): Linear(in_features=5120, out_features=5120, bias=True)
            (q_proj): Linear(in_features=5120, out_features=5120, bias=True)
            (out_proj): Linear(in_features=5120, out_features=5120, bias=True)
            (bmm1): TorchBMM()
            (bmm2): TorchBMM()
          )
          (activation_fn): ReLU()
          (self_attn_layer_norm): LayerNorm((5120,), eps=1e-05, elementwise_affine=True)
          (fc1): Linear(in_features=5120, out_features=20480, bias=True)
          (fc2): Linear(in_features=20480, out_features=5120, bias=True)
          (final_layer_norm): LayerNorm((5120,), eps=1e-05, elementwise_affine=True)
        )
        (26): OPTDecoderLayer(
          (self_attn): OPTAttention(
            (k_proj): Linear(in_features=5120, out_features=5120, bias=True)
            (v_proj): Linear(in_features=5120, out_features=5120, bias=True)
            (q_proj): Linear(in_features=5120, out_features=5120, bias=True)
            (out_proj): Linear(in_features=5120, out_features=5120, bias=True)
            (bmm1): TorchBMM()
            (bmm2): TorchBMM()
          )
          (activation_fn): ReLU()
          (self_attn_layer_norm): LayerNorm((5120,), eps=1e-05, elementwise_affine=True)
          (fc1): Linear(in_features=5120, out_features=20480, bias=True)
          (fc2): Linear(in_features=20480, out_features=5120, bias=True)
          (final_layer_norm): LayerNorm((5120,), eps=1e-05, elementwise_affine=True)
        )
        (27): OPTDecoderLayer(
          (self_attn): OPTAttention(
            (k_proj): Linear(in_features=5120, out_features=5120, bias=True)
            (v_proj): Linear(in_features=5120, out_features=5120, bias=True)
            (q_proj): Linear(in_features=5120, out_features=5120, bias=True)
            (out_proj): Linear(in_features=5120, out_features=5120, bias=True)
            (bmm1): TorchBMM()
            (bmm2): TorchBMM()
          )
          (activation_fn): ReLU()
          (self_attn_layer_norm): LayerNorm((5120,), eps=1e-05, elementwise_affine=True)
          (fc1): Linear(in_features=5120, out_features=20480, bias=True)
          (fc2): Linear(in_features=20480, out_features=5120, bias=True)
          (final_layer_norm): LayerNorm((5120,), eps=1e-05, elementwise_affine=True)
        )
        (28): OPTDecoderLayer(
          (self_attn): OPTAttention(
            (k_proj): Linear(in_features=5120, out_features=5120, bias=True)
            (v_proj): Linear(in_features=5120, out_features=5120, bias=True)
            (q_proj): Linear(in_features=5120, out_features=5120, bias=True)
            (out_proj): Linear(in_features=5120, out_features=5120, bias=True)
            (bmm1): TorchBMM()
            (bmm2): TorchBMM()
          )
          (activation_fn): ReLU()
          (self_attn_layer_norm): LayerNorm((5120,), eps=1e-05, elementwise_affine=True)
          (fc1): Linear(in_features=5120, out_features=20480, bias=True)
          (fc2): Linear(in_features=20480, out_features=5120, bias=True)
          (final_layer_norm): LayerNorm((5120,), eps=1e-05, elementwise_affine=True)
        )
        (29): OPTDecoderLayer(
          (self_attn): OPTAttention(
            (k_proj): Linear(in_features=5120, out_features=5120, bias=True)
            (v_proj): Linear(in_features=5120, out_features=5120, bias=True)
            (q_proj): Linear(in_features=5120, out_features=5120, bias=True)
            (out_proj): Linear(in_features=5120, out_features=5120, bias=True)
            (bmm1): TorchBMM()
            (bmm2): TorchBMM()
          )
          (activation_fn): ReLU()
          (self_attn_layer_norm): LayerNorm((5120,), eps=1e-05, elementwise_affine=True)
          (fc1): Linear(in_features=5120, out_features=20480, bias=True)
          (fc2): Linear(in_features=20480, out_features=5120, bias=True)
          (final_layer_norm): LayerNorm((5120,), eps=1e-05, elementwise_affine=True)
        )
        (30): OPTDecoderLayer(
          (self_attn): OPTAttention(
            (k_proj): Linear(in_features=5120, out_features=5120, bias=True)
            (v_proj): Linear(in_features=5120, out_features=5120, bias=True)
            (q_proj): Linear(in_features=5120, out_features=5120, bias=True)
            (out_proj): Linear(in_features=5120, out_features=5120, bias=True)
            (bmm1): TorchBMM()
            (bmm2): TorchBMM()
          )
          (activation_fn): ReLU()
          (self_attn_layer_norm): LayerNorm((5120,), eps=1e-05, elementwise_affine=True)
          (fc1): Linear(in_features=5120, out_features=20480, bias=True)
          (fc2): Linear(in_features=20480, out_features=5120, bias=True)
          (final_layer_norm): LayerNorm((5120,), eps=1e-05, elementwise_affine=True)
        )
        (31): OPTDecoderLayer(
          (self_attn): OPTAttention(
            (k_proj): Linear(in_features=5120, out_features=5120, bias=True)
            (v_proj): Linear(in_features=5120, out_features=5120, bias=True)
            (q_proj): Linear(in_features=5120, out_features=5120, bias=True)
            (out_proj): Linear(in_features=5120, out_features=5120, bias=True)
            (bmm1): TorchBMM()
            (bmm2): TorchBMM()
          )
          (activation_fn): ReLU()
          (self_attn_layer_norm): LayerNorm((5120,), eps=1e-05, elementwise_affine=True)
          (fc1): Linear(in_features=5120, out_features=20480, bias=True)
          (fc2): Linear(in_features=20480, out_features=5120, bias=True)
          (final_layer_norm): LayerNorm((5120,), eps=1e-05, elementwise_affine=True)
        )
        (32): OPTDecoderLayer(
          (self_attn): OPTAttention(
            (k_proj): Linear(in_features=5120, out_features=5120, bias=True)
            (v_proj): Linear(in_features=5120, out_features=5120, bias=True)
            (q_proj): Linear(in_features=5120, out_features=5120, bias=True)
            (out_proj): Linear(in_features=5120, out_features=5120, bias=True)
            (bmm1): TorchBMM()
            (bmm2): TorchBMM()
          )
          (activation_fn): ReLU()
          (self_attn_layer_norm): LayerNorm((5120,), eps=1e-05, elementwise_affine=True)
          (fc1): Linear(in_features=5120, out_features=20480, bias=True)
          (fc2): Linear(in_features=20480, out_features=5120, bias=True)
          (final_layer_norm): LayerNorm((5120,), eps=1e-05, elementwise_affine=True)
        )
        (33): OPTDecoderLayer(
          (self_attn): OPTAttention(
            (k_proj): Linear(in_features=5120, out_features=5120, bias=True)
            (v_proj): Linear(in_features=5120, out_features=5120, bias=True)
            (q_proj): Linear(in_features=5120, out_features=5120, bias=True)
            (out_proj): Linear(in_features=5120, out_features=5120, bias=True)
            (bmm1): TorchBMM()
            (bmm2): TorchBMM()
          )
          (activation_fn): ReLU()
          (self_attn_layer_norm): LayerNorm((5120,), eps=1e-05, elementwise_affine=True)
          (fc1): Linear(in_features=5120, out_features=20480, bias=True)
          (fc2): Linear(in_features=20480, out_features=5120, bias=True)
          (final_layer_norm): LayerNorm((5120,), eps=1e-05, elementwise_affine=True)
        )
        (34): OPTDecoderLayer(
          (self_attn): OPTAttention(
            (k_proj): Linear(in_features=5120, out_features=5120, bias=True)
            (v_proj): Linear(in_features=5120, out_features=5120, bias=True)
            (q_proj): Linear(in_features=5120, out_features=5120, bias=True)
            (out_proj): Linear(in_features=5120, out_features=5120, bias=True)
            (bmm1): TorchBMM()
            (bmm2): TorchBMM()
          )
          (activation_fn): ReLU()
          (self_attn_layer_norm): LayerNorm((5120,), eps=1e-05, elementwise_affine=True)
          (fc1): Linear(in_features=5120, out_features=20480, bias=True)
          (fc2): Linear(in_features=20480, out_features=5120, bias=True)
          (final_layer_norm): LayerNorm((5120,), eps=1e-05, elementwise_affine=True)
        )
        (35): OPTDecoderLayer(
          (self_attn): OPTAttention(
            (k_proj): Linear(in_features=5120, out_features=5120, bias=True)
            (v_proj): Linear(in_features=5120, out_features=5120, bias=True)
            (q_proj): Linear(in_features=5120, out_features=5120, bias=True)
            (out_proj): Linear(in_features=5120, out_features=5120, bias=True)
            (bmm1): TorchBMM()
            (bmm2): TorchBMM()
          )
          (activation_fn): ReLU()
          (self_attn_layer_norm): LayerNorm((5120,), eps=1e-05, elementwise_affine=True)
          (fc1): Linear(in_features=5120, out_features=20480, bias=True)
          (fc2): Linear(in_features=20480, out_features=5120, bias=True)
          (final_layer_norm): LayerNorm((5120,), eps=1e-05, elementwise_affine=True)
        )
        (36): OPTDecoderLayer(
          (self_attn): OPTAttention(
            (k_proj): Linear(in_features=5120, out_features=5120, bias=True)
            (v_proj): Linear(in_features=5120, out_features=5120, bias=True)
            (q_proj): Linear(in_features=5120, out_features=5120, bias=True)
            (out_proj): Linear(in_features=5120, out_features=5120, bias=True)
            (bmm1): TorchBMM()
            (bmm2): TorchBMM()
          )
          (activation_fn): ReLU()
          (self_attn_layer_norm): LayerNorm((5120,), eps=1e-05, elementwise_affine=True)
          (fc1): Linear(in_features=5120, out_features=20480, bias=True)
          (fc2): Linear(in_features=20480, out_features=5120, bias=True)
          (final_layer_norm): LayerNorm((5120,), eps=1e-05, elementwise_affine=True)
        )
        (37): OPTDecoderLayer(
          (self_attn): OPTAttention(
            (k_proj): Linear(in_features=5120, out_features=5120, bias=True)
            (v_proj): Linear(in_features=5120, out_features=5120, bias=True)
            (q_proj): Linear(in_features=5120, out_features=5120, bias=True)
            (out_proj): Linear(in_features=5120, out_features=5120, bias=True)
            (bmm1): TorchBMM()
            (bmm2): TorchBMM()
          )
          (activation_fn): ReLU()
          (self_attn_layer_norm): LayerNorm((5120,), eps=1e-05, elementwise_affine=True)
          (fc1): Linear(in_features=5120, out_features=20480, bias=True)
          (fc2): Linear(in_features=20480, out_features=5120, bias=True)
          (final_layer_norm): LayerNorm((5120,), eps=1e-05, elementwise_affine=True)
        )
        (38): OPTDecoderLayer(
          (self_attn): OPTAttention(
            (k_proj): Linear(in_features=5120, out_features=5120, bias=True)
            (v_proj): Linear(in_features=5120, out_features=5120, bias=True)
            (q_proj): Linear(in_features=5120, out_features=5120, bias=True)
            (out_proj): Linear(in_features=5120, out_features=5120, bias=True)
            (bmm1): TorchBMM()
            (bmm2): TorchBMM()
          )
          (activation_fn): ReLU()
          (self_attn_layer_norm): LayerNorm((5120,), eps=1e-05, elementwise_affine=True)
          (fc1): Linear(in_features=5120, out_features=20480, bias=True)
          (fc2): Linear(in_features=20480, out_features=5120, bias=True)
          (final_layer_norm): LayerNorm((5120,), eps=1e-05, elementwise_affine=True)
        )
        (39): OPTDecoderLayer(
          (self_attn): OPTAttention(
            (k_proj): Linear(in_features=5120, out_features=5120, bias=True)
            (v_proj): Linear(in_features=5120, out_features=5120, bias=True)
            (q_proj): Linear(in_features=5120, out_features=5120, bias=True)
            (out_proj): Linear(in_features=5120, out_features=5120, bias=True)
            (bmm1): TorchBMM()
            (bmm2): TorchBMM()
          )
          (activation_fn): ReLU()
          (self_attn_layer_norm): LayerNorm((5120,), eps=1e-05, elementwise_affine=True)
          (fc1): Linear(in_features=5120, out_features=20480, bias=True)
          (fc2): Linear(in_features=20480, out_features=5120, bias=True)
          (final_layer_norm): LayerNorm((5120,), eps=1e-05, elementwise_affine=True)
        )
      )
    )
  )
  (lm_head): Linear(in_features=5120, out_features=50272, bias=False)
)
evaluating
err_prob= 0.0 0.784
1e-08
loading model
smoothing
tokenizer
loading dataset

decoder
decoder.embed_tokens
decoder.embed_positions
decoder.final_layer_norm
decoder.layers
decoder.layers.0
decoder.layers.0.self_attn
decoder.layers.0.self_attn.k_proj
decoder.layers.0.self_attn.v_proj
decoder.layers.0.self_attn.q_proj
decoder.layers.0.self_attn.out_proj
…
